models/upscale2x_c3_rt_f16.onnx (onnx, 155526 bytes, 20 tensors)

import/Graph/MemNet/LRConv2d/kernel:0 f2 [32, 3, 3, 3]
-0.012375 -0.01987 0.05927 0.1185 -0.03818 0.037 0.012566 -0.1292
-0.0962 -0.1406 -0.0407 -0.1171 -0.09436 -0.09186 -0.04495 0.05353
-0.003222 0.0745 -0.03268 -0.0641 -0.0366 0.0727 0.056 0.05334
-0.05206 -0.03098 -0.05737 0.12225 0.1432 0.06076 0.03105 -0.03378
-0.000462 -0.03165 -0.03815 0.1366 0.0009317 -0.0846 0.04297 -0.03336
-0.09265 -0.05344 -0.1147 0.03473 0.09686 0.0516 0.007797 0.0527
0.0987 -0.11224 0.05902 -0.03482 0.05905 0.02574 0.09595 0.02048
0.1473 0.04562 0.05472 0.02231 -0.04068 0.06445 0.02771 0.10675
0.01855 0.05692 0.02988 -0.114 0.03616 -0.02634 -0.006775 0.04327
-0.04062 -0.0582 0.02524 0.04324 0.02663 -0.01407 -0.04776 -0.02554
0.08685 -0.05765 0.0686 -0.0864 -0.10004 0.1138 0.02986 -0.007317
-0.02707 -0.0442 -0.02824 -0.08606 0.1048 -0.0564 -0.0426 0.01762
-0.1305 -0.0161 0.0635 -0.1026 -0.0685 -0.01619 -0.0942 0.072
0.002497 0.07465 -0.007935 -0.007744 -0.02045 0.001854 -0.02531 0.04785
-0.1022 0.01539 -0.02966 0.06323 0.03815 0.01421 0.006767 0.006565
0.1139 -0.0005207 0.03564 -0.05017 0.005066 -0.04587 -0.04913 -0.05847
0.1584 0.00404 0.02983 -0.01146 0.10895 0.05035 0.065 -0.0642
0.0867 -0.0316 0.1013 0.1217 0.01542 -0.1335 0.04807 0.05988
-0.0955 0.09326 0.01596 -0.04944 0.02531 -0.0107 0.1037 0.0732
-0.1332 0.03775 -0.10596 -0.01723 0.0704 -0.05768 0.1073 -0.02983
-0.05392 0.0853 0.01997 -0.014626 0.01008 0.04517 0.02277 0.0617
0.006645 -0.0195 0.0678 -0.1063 0.05634 -0.04492 -0.0442 0.02667
0.003159 -0.0724 0.11304 -0.01282 0.0524 0.0952 -0.01993 0.02246
0.0403 0.0418 -0.001094 -0.000844 -0.12396 -0.01985 -0.07574 0.1228
0.017 0.096 -0.03772 0.0459 0.1396 0.01238 -0.04913 -0.01611
0.041 -0.04004 0.010704 0.04214 -0.08936 -0.11237 0.0435 0.02614
-0.05536 0.05414 0.0909 0.03748 0.1124 0.05896 0.10205 -0.0931
-0.09766 0.06113 -0.00739 -0.01486 0.03635 0.0672 0.048 -0.0606
0.0005703 0.0336 0.04556 0.0262 -0.07196 -0.02457 -0.00737 0.0454
0.07556 0.01709 0.00817 -0.01315 0.03342 -0.001839 0.0967 0.02145
-0.05487 0.0632 0.02397 0.0313 -0.05313 0.1255 0.1278 0.01428
0.1382 0.11395 -0.02238 -0.0993 0.02348 0.10425 -0.1012 0.0729
00000000: 56a2 16a5 962b 962f e3a8 bc28 6f22 22b0
00000010: 28ae 80b0 36a9 7faf 0aae e1ad c1a9 da2a
00000020: 999a c52c 2fa8 1aac afa8 a72c 2b2b d42a
00000030: aaaa eea7 58ab d32f 9530 c72b f327 53a8
00000040: 928f 0da8 e2a8 5f30 a213 6aad 8029 45a8
00000050: eead d7aa 57af 7228 332e 9b2a fc1f bf2a
00000060: 512e 2faf 8e2b 75a8 8f2b 9726 242e 3e25
00000070: b730 d729 012b b625 35a9 202c 1827 d52e
00000080: c024 492b a627 4caf a128 bea6 f09e 8a29
00000090: 33a9 73ab 7626 8929 d126 34a3 1daa 8aa6
000000a0: 8f2d 61ab 642c 88ad 67ae 482f a527 7e9f
000000b0: eea6 a8a9 3ba7 82ad b52e 38ab 74a9 8324
000000c0: 2db0 1fa4 102c 91ae 62ac 25a4 07ae 9c2c
000000d0: 1d19 c72c 10a0 ee9f 3ca5 9817 7ba6 202a
000000e0: 8aae e123 98a7 0c2c e228 4723 ee1e b91e
000000f0: 4a2f 4490 9028 6caa 301d dfa9 4aaa 7cab
00000100: 1231 231c a327 dea1 f92e 722a 292c 1cac
00000110: 8c2d 0ba8 7c2e ca2f e523 46b0 272a aa2b
00000120: 1dae f82d 1624 54aa 7b26 7aa1 a32e af2c
00000130: 43b0 d528 c8ae 69a4 812c 62ab de2e a3a7
00000140: e7aa 762d 1d25 7da3 2921 c829 d425 e62b
00000150: ce1e fea4 572c ceae 362b c0a9 a8a9 d426
00000160: 781a a2ac 3c2f 90a2 b52a 182e 1aa5 c025
00000170: 2929 5a29 7b94 ea92 efaf 15a5 d9ac dc2f
00000180: 5a24 252e d4a8 e029 7830 5722 4aaa 20a4
00000190: 3f29 20a9 7b21 6529 b8ad 31af 9129 b126
000001a0: 16ab ee2a d12d cc28 322f 8c2b 882e f5ad
000001b0: 40ae d32b 919f 9ca3 a728 4d2c 252a c2ab
000001c0: ac10 4d28 d529 b526 9bac 4aa6 8c9f d029
000001d0: d62c 6024 2f20 bca2 4728 8897 302e 7e25
000001e0: 06ab 0b2c 2326 0228 cdaa 0430 1730 5023
000001f0: 6c30 4b2f bba5 5bae 0326 ac2e 7aae aa2c

import/Graph/MemNet/LRConv2d/bias:0 f2 [32]
-0.01422 0.03522 0.02092 0.0004642 0.01441 0.02664 0.0152 0.02728
0.01209 0.01723 -0.03888 -0.01187 -0.01915 -0.002556 0.02116 -0.02603
0.013664 0.01062 -0.0416 -0.02248 0.001912 -0.03099 0.002615 0.02791
-0.002459 0.009544 -0.03204 -0.00843 -0.02448 0.02948 0.001952 0.00896
00000000: 48a3 8228 5b25 9b0f 6123 d226 c823 fc26
00000010: 3122 6924 faa8 14a2 e7a4 3c99 6b25 aaa6
00000020: ff22 7021 53a9 c1a5 d517 efa7 5b19 2527
00000030: 0999 e320 1aa8 51a0 44a6 8c27 ff17 9620

import/Graph/MemNet/MemBlock_1/ResBlock_1/Conv1/kernel:0 f2 [32, 32, 3, 3]
0.0256 0.05225 -0.0663 -0.1683 0.008194 -0.03784 -0.1332 -0.0669
0.09595 0.02505 0.06964 0.03436 0.03223 0.1008 -0.05215 0.03214
0.02469 0.02905 -0.083 -0.0004525 -0.0895 0.11194 -0.03065 0.00299
-0.07764 0.05545 -0.03017 0.0826 0.06335 -0.2229 -0.02258 -0.01913
-0.0001248 0.003855 -0.01065 -0.1633 0.006275 -0.07465 0.02313 0.05423
0.1233 -0.06824 0.05048 -0.05743 0.003897 0.08795 -0.04062 0.1359
0.01958 -0.0301 0.005745 0.01982 -0.05173 0.0807 0.0488 0.1204
-0.0389 -0.03049 -0.05994 0.05823 0.01461 -0.0547 0.00853 -0.01894
-0.0841 -0.010025 0.0001447 -0.12396 -0.07056 -0.10394 -0.01894 -0.01671
-0.02596 0.0012 -0.005497 0.1165 0.0048 -0.007393 -0.06168 0.0727
-0.0465 0.09717 0.01429 -0.09155 -0.01452 0.04773 0.1178 0.0592
0.0947 -0.055 0.00964 -0.01762 0.03845 0.02122 -0.02765 0.0752
-0.05728 0.1108 0.00398 0.03888 -0.007294 0.01846 -0.02759 0.02504
0.0432 -0.01843 0.05524 -0.10284 0.010895 0.00251 0.02803 -0.04068
0.1991 -0.04898 -0.03204 0.03397 0.03635 -0.00908 0.1324 -0.03827
-0.03452 -0.01304 0.05637 -0.1155 0.003975 -0.03284 -0.03488 0.03687
-0.0959 0.122 0.07574 -0.06964 -0.02722 -0.105 0.05524 0.0492
-0.01406 0.0919 -0.0943 -0.06323 0.00416 -0.05377 -0.02269 0.1306
-0.00606 0.1079 -0.02147 -0.06055 -0.02989 0.151 -0.02179 0.003616
-0.008995 -0.001744 0.09534 0.00815 -0.002024 -0.1375 0.00984 0.011734
-0.1351 0.1243 0.1147 0.2153 -0.1809 -0.1516 -0.11755 -0.07294
0.1627 -0.01008 0.0354 -0.1138 0.0393 -0.010704 -0.04544 -0.02481
0.1475 -0.07904 0.004475 0.03476 -0.0439 -0.04828 -0.07965 0.05356
0.0715 0.01481 0.03152 -0.02089 0.0857 -0.0804 0.0272 0.09283
0.02174 0.0951 -0.02005 0.063 0.03546 0.1117 0.02455 -0.0889
0.0528 -0.006042 -0.0873 -0.0744 0.0726 0.049 0.004997 -0.001793
-0.0608 0.04584 0.02592 -0.01768 0.0477 0.005768 -0.03001 -0.0341
0.143 -0.0518 -0.0414 -0.1279 -0.1594 -0.0456 0.01189 0.01578
-0.03232 -0.002953 -0.085 0.1528 0.010666 -0.02097 0.08594 -0.0801
-0.06256 0.02878 -0.0734 0.0698 -0.02554 -0.06134 0.04736 0.1201
0.1217 -0.0536 0.031 -0.012505 0.121 0.003504 0.07526 0.004494
0.02429 -0.01378 -0.1018 -0.01271 -0.05557 -0.006344 -0.03757 0.0812
00000000: 8e26 b02a 3eac 63b1 3220 d8a8 43b0 48ac
00000010: 242e 6a26 752c 6628 2028 742e adaa 1d28
00000020: 5226 7027 50ad 6a8f baad 2a2f d9a7 201a
00000030: f8ac 192b b9a7 492d 0e2c 22b3 c8a5 e6a4
00000040: 1788 e51b 74a1 3ab1 6d1e c7ac ec25 f12a
00000050: e42f 5eac 762a 5aab fb1b a12d 33a9 5930
00000060: 0325 b5a7 e21d 1325 9faa 2a2d 3f2a b52f
00000070: fba8 cea7 acab 742b 7b23 00ab 5e20 d9a4
00000080: 62ad 22a1 be08 efaf 84ac a7ae d9a4 47a4
00000090: a5a6 ea14 a19d 752f ea1c 929f e5ab a72c
000000a0: f4a9 382e 5123 dcad 6fa3 1c2a 8a2f 942b
000000b0: 102e 0aab f020 83a4 ec28 6f25 14a7 d02c
000000c0: 55ab 172f 131c fa28 789f ba24 10a7 6926
000000d0: 8829 b8a4 122b 95ae 9421 2419 2d27 35a9
000000e0: 5f32 45aa 1aa8 5928 a728 a6a0 3d30 e6a8
000000f0: 6ba8 ada2 372b 64af 121c 34a8 77a8 b828
00000100: 23ae cf2f d92c 75ac f8a6 b8ae 122b 4c2a
00000110: 33a3 e22d 09ae 0cac 431c e2aa cfa5 2e30
00000120: 359e e82e 7fa5 c0ab a7a7 d530 94a5 681b
00000130: 9ba0 2597 1a2e 2c20 2598 66b0 0a21 0222
00000140: 53b0 f52f 572f e432 cab1 dab0 86af abac
00000150: 3531 29a1 8828 48af 0829 7ba1 d1a9 5aa6
00000160: b830 0fad 951c 7328 9fa9 2eaa 19ad db2a
00000170: 932c 9523 0928 59a5 7c2d 25ad f726 f12d
00000180: 9125 162e 22a5 082c 8a28 262f 4926 b1ad
00000190: c22a 309e 96ad c3ac a52c 462a 1e1d 5897
000001a0: c8ab de29 a326 87a4 1b2a e81d afa7 5da8
000001b0: 9330 a1aa 4da9 18b0 1ab1 d6a9 1622 0a24
000001c0: 23a8 0c9a 71ad e430 7621 5ea5 802d 20ad
000001d0: 01ac 5e27 b3ac 782c 8aa6 daab 102a b02f
000001e0: ca2f dcaa f027 67a2 be2f 2d1b d12c 9a1c
000001f0: 3826 0ea3 84ae 82a2 1dab 7f9e cfa8 322d

import/Graph/MemNet/MemBlock_1/ResBlock_1/Conv1/bias:0 f2 [32]
0.00619 0.01035 0.010826 -0.0475 0.005726 0.012344 0.02742 0.013405
0.0002161 0.00547 0.00627 -0.01286 -0.00376 -0.001298 0.014084 -0.00931
0.00847 -0.02095 0.01528 0.0009584 -0.005917 0.01521 -0.01155 0.0103
0.004738 0.002 0.01717 -0.011734 -0.002262 -0.0003104 -0.0667 0.0161
00000000: 571e 4d21 8b21 14aa dd1d 5222 0527 dd22
00000010: 150b 9a1d 6c1e 96a2 b39b 5195 3623 c4a0
00000020: 5620 5da5 d323 da13 0f9e ca23 eaa1 4621
00000030: da1c 1918 6524 02a2 a298 168d 45ac 1f24

import/Graph/MemNet/MemBlock_1/ResBlock_1/Conv2/kernel:0 f2 [32, 32, 3, 3]
-0.0708 -0.05417 0.1345 0.03186 -0.0746 -0.1461 0.07587 -0.001303
0.05347 0.1334 -0.0811 0.015205 -0.1247 -0.0847 -0.004627 -0.0811
0.0852 -0.04587 0.03342 -0.1223 -0.05978 0.002636 0.001096 0.05286
0.04166 0.02286 -0.0887 0.035 -0.11426 -0.02687 -0.04834 0.01348
-0.0823 -0.1501 0.1151 -0.001024 0.03278 -0.04135 0.0716 -0.0801
-0.0753 -0.01886 -0.01094 -0.03107 0.05325 -0.04922 -0.0167 -0.01575
0.01349 0.0609 0.03534 0.0314 -0.06287 0.1337 0.1454 0.04117
0.0743 0.02684 0.00508 -0.04074 -0.03964 -0.001844 -0.0663 0.10834
0.02289 0.0628 0.0708 -0.02234 0.07715 -0.06033 0.001039 0.03976
-0.09564 -0.001399 0.04044 0.11664 0.07965 -0.0682 -0.096 -0.1092
-0.003168 0.02176 0.0619 -0.0978 -0.02663 -0.02867 0.0847 -0.00924
-0.01964 0.11597 0.05545 -0.07465 0.0692 -0.06067 -0.10126 0.02515
-0.03238 -0.0734 -0.0543 0.004856 -0.02907 0.04266 -0.0976 0.03308
0.006042 -0.02065 0.0693 -0.01785 0.02794 -0.02914 0.0171 0.02386
0.1277 -0.05228 -0.06186 -0.0714 0.1238 0.0506 -0.04675 -0.00603
-0.015396 0.0687 -0.0239 0.134 0.06396 0.01704 0.12 -0.0741
0.1383 -0.0569 0.0871 0.1451 0.1542 -0.01011 0.1487 -0.1067
0.1038 -0.04242 -0.0627 0.10486 -0.002102 -0.11414 -0.0517 0.08453
-0.03027 0.08777 0.02437 0.08075 0.1498 0.03906 -0.04544 -0.05902
-0.004696 -0.125 -0.01616 -0.072 -0.1273 0.0848 0.01924 0.08435
-0.0752 0.1587 0.1741 0.02838 -0.0683 -0.1316 -0.005947 -0.1013
0.01816 -0.08276 -0.1089 -0.004402 0.04742 -0.02583 0.0848 0.0897
0.007465 0.1234 0.03232 -0.09546 0.03836 -0.1387 -0.1049 -0.05682
-0.1118 -0.08636 0.04968 0.164 -0.0425 -0.01326 0.05438 -0.04303
-0.05582 -0.066 -0.02966 -0.0397 0.04074 0.0895 -0.09296 0.0577
0.0002916 0.1256 -0.01573 -0.0289 -0.02196 0.0387 0.0927 0.03296
-0.03296 -0.1073 -0.1063 -0.0402 0.031 -0.04156 0.04648 -0.00888
-0.08844 0.07684 0.0548 -0.148 -0.01447 0.07904 -0.001682 0.0659
0.0776 0.1109 0.01578 -0.04446 0.03058 -0.0833 0.1137 0.03775
-0.0391 0.02145 -0.008286 -0.0686 0.03992 0.08685 -0.1029 0.03336
-0.0763 0.02135 0.02553 0.0621 -0.0474 -0.011185 -0.07007 -0.02504
0.01704 -0.01548 -0.1194 -0.04022 -0.0487 -0.03036 0.0176 0.1098
00000000: 88ac efaa 4e30 1428 c6ac adb0 db2c 5695
00000010: d82a 4530 31ad c923 fbaf 6cad bd9c 31ad
00000020: 742d dfa9 4728 d4af a7ab 6619 7d14 c42a
00000030: 5529 da25 adad 7b28 50af e1a6 30aa e722
00000040: 44ad ceb0 5e2f 3294 3228 4ba9 952c 20ad
00000050: d2ac d4a4 9aa1 f4a7 d12a 4daa 46a4 08a4
00000060: e822 cc2b 8628 0528 06ac 4730 a730 4529
00000070: c12c df26 341d 37a9 13a9 8e97 3eac ef2e
00000080: dc25 052c 882c b8a5 f02c b9ab 4114 1729
00000090: 1fae bb95 2d29 772f 192d 5dac 25ae fdae
000000a0: 7d9a 9225 ec2b 42ae d1a6 57a7 6c2d bba0
000000b0: 07a5 6c2f 192b c7ac 6e2c c4ab 7bae 7026
000000c0: 25a8 b3ac f3aa f91c 71a7 7629 3fae 3c28
000000d0: 301e 49a5 6f2c 92a4 2727 76a7 6124 1c26
000000e0: 1630 b1aa ebab 92ac ec2f 7a2a fca9 2d9e
000000f0: e2a3 662c 1ea6 4a30 182c 5d24 ae2f beac
00000100: 6d30 48ab 932d a530 ef30 2da1 c230 d4ae
00000110: a52e 6ea9 03ac b62e 4e98 4eaf 9eaa 692d
00000120: c0a7 9e2d 3d26 2b2d cb30 0029 d1a9 8eab
00000130: cf9c 00b0 23a4 9cac 13b0 6d2d ed24 662d
00000140: d0ac 1431 9231 4427 5fac 36b0 179e 7cae
00000150: a624 4cad f8ae 829c 122a 9da6 6d2d be2d
00000160: a51f e62f 2328 1cae e928 70b0 b7ae 46ab
00000170: 28af 87ad 5c2a 3f31 71a9 caa2 f62a 82a9
00000180: 25ab 39ac 98a7 15a9 3729 ba2d f3ad 632b
00000190: c70c 0530 07a4 66a7 9fa5 f428 ef2d 3828
000001a0: 38a8 deae ceae 25a9 f027 52a9 f329 8ca0
000001b0: a9ad eb2c 042b bcb0 69a3 0f2d e496 382c
000001c0: f72c 192f 0a24 b1a9 d427 55ad 472f d528
000001d0: 01a9 7e25 3ea0 64ac 1c29 8f2d 96ae 4528
000001e0: e2ac 7725 8926 f32b 11aa baa1 7cac 69a6
000001f0: 5d24 eda3 a4af 26a9 3caa c6a7 8124 072f

import/Graph/MemNet/MemBlock_1/ResBlock_1/Conv2/bias:0 f2 [32]
0.003208 -0.0008335 -0.01134 0.0161 -0.0005 0.001569 0.00172 0.001372
-0.004543 -0.0011 0.00918 0.01169 -0.02412 0.010086 -0.00967 0.003433
0.005386 0.00392 -0.005497 0.00227 6.36e-05 0.0057 -0.00956 -0.00308
-0.01193 0.002018 -0.001837 0.005104 0.0004072 0.006798 0.00445 0.0045
00000000: 921a d492 cea1 1f24 1990 6d16 0c17 9f15
00000010: a79c 8194 b320 fc21 2da6 2a21 f3a0 081b
00000020: 841d 041c a19d a618 2b04 d61d e5a0 4f9a
00000030: 1ca2 2218 8697 3a1d ac0e f61e 8f1c 9c1c

import/Graph/MemNet/MemBlock_1/ResBlock_2/Conv1/kernel:0 f2 [32, 32, 3, 3]
0.0724 -0.083 0.02087 0.02255 0.0772 0.0332 0.08325 0.03714
-0.0904 0.05972 0.1365 -0.03723 0.0204 0.1169 -0.036 -0.01694
-0.10614 0.04175 -0.07764 -0.1552 0.03146 0.02625 0.0503 -0.0615
0.1132 -0.0733 0.04654 0.03766 -0.0261 -0.03873 0.06076 0.01338
0.04288 0.0745 -0.02763 0.05118 0.05548 0.07764 -0.02539 -0.0703
-0.04446 -0.09766 0.08997 0.01201 -0.1328 0.04053 0.0702 0.06195
-0.09906 -0.00862 -0.04327 0.1365 -0.1425 0.0357 -0.0715 -0.02031
0.1676 0.02013 0.038 0.02425 0.07043 0.06445 0.0751 -0.03888
-0.03687 0.1385 0.0473 0.1185 0.0326 0.0934 0.007782 -0.04196
0.05423 -0.02235 0.01302 0.02808 -0.0073 0.05154 0.02034 0.02512
-0.0871 -0.0513 0.01092 -0.02075 0.05164 0.08417 0.1302 0.0655
0.1039 -0.02489 0.077 0.1271 0.1045 -0.08545 -0.0733 -0.07104
0.0892 0.03845 0.04797 -0.02115 -0.148 -0.02605 -0.03342 -0.03143
-0.04642 -0.00883 -0.00391 0.00867 0.03284 0.02516 -0.01978 0.1722
0.013596 0.0737 -0.02034 -0.02573 0.006397 -0.0914 -0.0815 0.05637
-0.0251 -0.0946 0.01804 -0.02698 -0.087 0.02252 0.013245 -0.0775
-0.02396 0.03062 -0.02322 -0.1154 0.11865 0.0174 0.0696 0.0633
-0.0002837 -0.0936 -0.00804 0.0961 0.0397 0.02632 -0.00305 -0.0639
0.000354 0.0207 0.05392 -0.097 0.04227 0.09644 0.0294 -0.03482
-0.1117 -0.0781 -0.014435 0.004257 -0.04688 0.0004377 0.02295 0.02261
0.01531 0.05746 0.0393 0.00264 0.00906 0.005833 0.02684 -0.015045
0.06015 -0.1134 -0.01668 -0.05386 0.14 -0.04807 0.05554 -0.03687
0.0426 -0.002449 -0.03111 0.03119 -0.02 -0.1149 -0.02547 -0.0932
0.0348 -0.02402 -0.07355 0.05176 -0.0846 0.06726 -0.1536 -0.1311
0.0487 -0.04178 0.05835 0.05212 0.02826 -0.02527 0.0836 -0.0498
-0.07916 0.05255 0.03464 -0.00922 -0.1077 -0.0324 -0.00494 0.0478
0.02782 0.011856 -0.0934 -0.07855 -0.000419 -0.09064 0.0049 -0.01509
-0.05612 -0.01993 -0.01857 0.07166 0.03955 -0.06192 0.02602 -0.03488
0.111 -0.10486 0.0412 -0.10315 -0.0879 0.0637 0.0479 0.001055
0.01717 0.06494 -0.0524 0.07294 0.03937 0.05444 -0.01703 0.0819
-0.0007854 -0.0644 0.005196 -0.04276 0.1026 0.0731 0.01435 -0.006042
-0.07983 0.06003 -0.00588 0.012375 0.00744 -0.01097 0.02478 -0.0857
00000000: a22c 50ad 5825 c625 f12c 4028 542d c128
00000010: c9ad a52b 5e30 c4a8 3925 7b2f 9ca8 56a4
00000020: cbae 5829 f8ac f7b0 0728 b826 702a dfab
00000030: 3f2f b1ac f529 d228 aea6 f5a8 c72b da22
00000040: 7d29 c52c 13a7 8d2a 1a2b f82c 80a6 80ac
00000050: b1a9 40ae c22d 2622 40b0 3029 7e2c ee2b
00000060: 57ae 6aa0 8aa9 5e30 8fb0 9228 93ac 33a5
00000070: 5d31 2725 dd28 3526 822c 202c ce2c faa8
00000080: b8a8 6f30 0e2a 962f 2c28 fa2d f81f 5fa9
00000090: f12a b9a5 ab22 3027 7a9f 992a 3525 6e26
000000a0: 93ad 91aa 9721 50a5 9c2a 632d 2b30 312c
000000b0: a62e 5fa6 ee2c 1130 b02e 78ad b1ac 8cac
000000c0: b52d ec28 242a 6aa5 bcb0 aba6 47a8 06a8
000000d0: f1a9 85a0 019c 7020 3428 7126 10a5 8331
000000e0: f622 b82c 35a5 96a6 8d1e d9ad 37ad 372b
000000f0: 6da6 0eae 9e24 e8a6 91ad c425 c822 f6ac
00000100: 22a6 d727 f2a5 63af 982f 7424 742c 0d2c
00000110: a68c fead 1ea0 272e 1529 bd26 3f9a 17ac
00000120: cd0d 4d25 e72a 35ae 6929 2c2e 8727 75a8
00000130: 26af 00ad 64a3 5c1c 00aa 2c0f e025 ca25
00000140: d723 5b2b 0829 6819 a420 f91d df26 b4a3
00000150: b32b 42af 45a4 e5aa 7b30 27aa 1c2b b8a8
00000160: 7429 0499 f7a7 fc27 1fa5 5baf 85a6 f7ad
00000170: 7428 26a6 b5ac a02a 6aad 4e2c eab0 32b0
00000180: 3c2a 59a9 782b ac2a 3c27 78a6 5a2d 60aa
00000190: 11ad ba2a 6f28 b8a0 e5ae 26a8 0f9d 1e2a
000001a0: 1f27 1222 faad 07ad dd8e cdad 051d baa3
000001b0: 2fab 1aa5 c1a4 962c 1029 edab a926 77a8
000001c0: 1b2f b6ae 4629 9aae a0ad 142c 222a 5214
000001d0: 6524 282c b5aa ab2c 0a29 f82a 5ca4 3e2d
000001e0: 6f92 1fac 521d 79a9 912e ae2c 5923 309e
000001f0: 1cad af2b 059e 5622 9e1f 9ea1 5826 7cad

import/Graph/MemNet/MemBlock_1/ResBlock_2/Conv1/bias:0 f2 [32]
0.000691 -0.00228 -0.001251 -0.007435 0.0004377 0.00789 0.00459 -0.001616
-0.00016 -0.002226 0.01233 0.00471 -0.00462 -0.002823 0.01098 0.00454
-0.00576 -0.00884 0.00909 0.01098 0.002754 -0.01452 0.00363 -0.009384
0.002687 0.0015545 0.003944 0.01593 0.002785 0.00314 -0.00371 -0.004387
00000000: a911 ab98 2095 9d9f 2c0f 0a20 b31c 9e96
00000010: 3e89 8f98 5022 d31c bb9c c899 9f21 a61c
00000020: e69d 87a0 a720 9f21 a419 6fa3 6f1b cea0
00000030: 8119 5e16 0a1c 1424 b419 6e1a 999b 7e9c

import/Graph/MemNet/MemBlock_1/ResBlock_2/Conv2/kernel:0 f2 [32, 32, 3, 3]
0.01921 0.006905 -0.03406 0.02919 0.01569 0.0642 -0.02176 0.0324
0.10315 0.0035 -0.1288 0.0956 0.003918 -0.02332 0.0841 0.06433
0.1195 -0.11145 0.0656 0.06305 -0.11725 0.004177 -0.0258 0.0089
-0.0843 -0.1005 0.0897 0.1392 0.25 0.08496 0.06165 0.03314
0.06192 0.0774 0.02094 -0.05054 0.1228 0.11755 -0.00999 0.00508
-0.0342 0.02109 0.105 0.05383 0.06274 -0.02773 0.05023 0.01585
-0.10876 -0.03986 0.05496 0.0487 0.06586 -0.01094 -0.09283 -0.0352
0.003887 -0.03906 0.0411 0.03882 -0.0442 -0.0584 0.1073 -0.00538
0.0337 0.1019 -0.04297 0.11743 0.0758 -0.127 0.06174 -0.07513
-0.09827 0.1307 -0.09125 0.10974 -0.037 -0.02649 0.03793 0.0638
0.0813 0.02606 -0.09283 -0.08905 -0.1312 -0.04697 0.03848 0.03964
-0.1677 -0.09564 0.07837 -0.09625 0.1406 -0.0666 -0.1436 0.0288
0.1064 0.1327 -0.0713 0.01791 -0.03494 -0.02046 0.11206 -0.0677
0.01504 0.1273 0.061 0.124 -0.0725 -0.1332 -0.01709 -0.02396
-0.0021 -0.09314 0.02155 -0.02061 -0.01147 0.1588 -0.07874 -0.05093
0.05743 0.1489 -0.0397 0.04184 0.02156 0.0545 -0.03314 -0.0459
-0.02771 -0.007057 -0.05917 0.12354 0.1263 0.04153 -0.08765 -0.1487
0.0833 -0.0733 0.0533 -0.1236 0.0627 0.02338 0.03986 -0.09625
0.03214 0.1361 -0.03534 0.03485 0.0734 0.0965 -0.071 0.07184
-0.1622 -0.0926 -0.01458 -0.1018 -0.00482 -0.06744 0.1464 0.1086
0.2133 0.1255 0.04562 0.03308 0.0565 0.1888 -0.124 0.01167
-0.0702 0.05338 -0.04074 0.1047 -0.06158 0.07324 0.10834 0.0355
-0.02332 0.0209 -0.1328 -0.00838 -0.0854 -0.003622 0.05524 0.02235
-0.09424 0.1256 -0.1022 0.03302 0.0204 0.0888 -0.1126 -0.00808
0.0946 0.081 -0.02272 0.1699 0.0959 -0.02576 -0.07526 -0.04474
-0.002758 0.1136 -0.0696 0.03696 -0.04614 -0.0815 0.10645 -0.003296
-0.113 -0.0831 0.1191 -0.00764 -0.003578 0.0647 0.1332 -0.02437
0.028 -0.1108 0.01956 -0.02304 -0.0366 0.0919 -0.0524 0.02869
0.08167 -0.06866 0.0009127 0.03104 0.02875 -0.11743 0.0379 -0.1069
-0.1057 -0.03088 -0.12036 -0.05997 -0.02228 -0.03079 -0.1166 0.01862
0.1488 -0.0453 -0.178 0.012924 0.0482 -0.03766 0.0652 0.0485
0.007202 -0.11584 -0.04315 -0.01572 -0.1127 -0.1252 -0.04895 -0.08777
00000000: eb24 121f 5ca8 7927 0424 1c2c 92a5 2628
00000010: 9a2e 2b1b 1fb0 1e2e 031c f8a5 622d 1e2c
00000020: a62f 22af 332c 092c 81af 471c 9ba6 8f20
00000030: 65ad 6fae be2d 7430 0034 702d e42b 3e28
00000040: ed2b f42c 5c25 78aa dc2f 862f 1da1 341d
00000050: 61a8 6625 b82e e42a 042c 19a7 6e2a 0f24
00000060: f6ae 1aa9 092b 3c2a 372c 9aa1 f1ad 81a8
00000070: f61b 00a9 4329 f828 a8a9 7aab de2e 829d
00000080: 5028 862e 80a9 842f da2c 10b0 e72b cfac
00000090: 4aae 2f30 d7ad 062f bca8 c8a6 db28 152c
000000a0: 342d ac26 f1ad b3ad 33b0 03aa ed28 1329
000000b0: 5eb1 1fae 042d 29ae 8030 43ac 98b0 5f27
000000c0: cf2e 3f30 90ac 9624 79a8 3da5 2c2f 55ac
000000d0: b323 1330 cf2b f02f a4ac 43b0 60a4 22a6
000000e0: 4d98 f6ad 8425 47a5 dfa1 1531 0aad 85aa
000000f0: 5a2b c430 15a9 5b29 8525 fa2a 3ea8 e0a9
00000100: 18a7 3a9f 93ab e82f 0b30 5129 9cad c2b0
00000110: 552d b1ac d32a e9af 032c fc25 1a29 29ae
00000120: 1d28 5b30 86a8 7628 b32c 2d2e 8bac 992c
00000130: 31b1 edad 77a3 84ae f09c 51ac af30 f32e
00000140: d332 0430 d729 3c28 3b2b 0b32 f0af fa21
00000150: 7eac d52a 37a9 b32e e2ab b02c ef2e 8b28
00000160: f8a5 5a25 40b0 4aa0 77ad 6b9b 122b b925
00000170: 08ae 0530 8aae 3a28 3925 af2d 35af 23a0
00000180: 0e2e 2f2d d1a5 7031 232e 98a6 d1ac baa9
00000190: a699 452f 74ac bb28 e8a9 37ad d02e c09a
000001a0: 3baf 52ad 9f2f d39f 549b 242c 4330 3da6
000001b0: 2b27 17af 0225 e6a5 afa8 e22d b5aa 5827
000001c0: 3a2d 65ac 7a13 f227 5c27 84af da28 d7ae
000001d0: c4ae e8a7 b4af adab b4a5 e2a7 76af c424
000001e0: c330 cca9 b2b1 9e22 2b2a d2a8 2c2c 352a
000001f0: 601f 6aaf 86a9 06a4 36af 02b0 44aa 9ead

import/Graph/MemNet/MemBlock_1/ResBlock_2/Conv2/bias:0 f2 [32]
-0.008156 0.005978 0.0008426 -0.004612 -0.004562 0.002398 0.00475 -0.003658
-0.003744 -0.0043 0.001067 0.00442 -0.00167 0.003448 -0.00887 0.007652
-6.664e-05 0.002382 -0.004932 -0.0009546 -0.001584 0.0008984 -0.00637 -0.01145
-0.002516 0.002365 0.00958 0.004692 0.009224 0.00241 -0.006687 -0.001755
00000000: 2da0 1f1e e712 b99c ac9c e918 dd1c 7e9b
00000010: ab9b 679c 5f14 871c d796 101b 8ba0 d61f
00000020: 5e84 e118 0d9d d293 7d96 5c13 869e dda1
00000030: 2799 d818 e820 ce1c b920 f018 d99e 3097

import/Graph/MemNet/MemBlock_1/ResBlock_3/Conv1/kernel:0 f2 [32, 32, 3, 3]
-0.1223 0.0902 0.02968 0.06076 -0.1514 -0.0819 0.01213 0.01845
-0.02281 0.005894 0.07556 -0.01311 -0.1508 -0.0313 0.02812 0.138
0.0001658 0.007263 0.02167 -0.002066 0.010765 0.03583 0.0911 0.09094
-0.01056 0.0872 0.02066 -0.0332 -0.08307 -0.06396 -0.05 0.0339
-0.00614 0.0351 -0.139 0.06946 0.08374 0.01224 0.09576 -0.01747
0.0936 -0.0506 0.1081 -0.00493 -0.03415 -0.07385 0.0337 0.04227
0.1179 0.0886 0.0722 -0.0914 -0.01605 0.01897 0.1307 -0.00194
-0.04202 -0.01927 -0.0697 -0.05826 -0.0426 -0.05594 -0.01431 -0.007614
0.127 -0.02063 0.04196 0.0773 -0.0238 0.0358 -0.1658 -0.03476
0.0405 -0.09235 -0.03079 0.00031 0.0693 0.10315 -0.00794 -0.075
-0.0438 -0.12476 0.1006 -0.0465 0.01079 -0.01596 -0.09436 -0.01482
-0.01474 -0.004543 -0.114 0.09515 0.09534 0.2277 -0.2725 0.02548
0.1081 -0.10785 0.04755 -0.0207 0.006702 0.006493 0.003643 0.02238
0.04755 -0.00956 0.00606 -0.01581 -0.01913 0.02989 0.04834 -0.1194
-0.00053 -0.05692 0.1401 0.2119 0.05203 -0.00821 -0.02388 -0.01279
0.11804 0.1323 0.02855 0.229 0.11755 0.1398 0.03123 -0.0597
-0.000273 0.07745 -0.04047 -0.01993 0.01793 0.007477 -0.10657 -0.000595
-0.0259 -0.0293 0.02351 -0.1272 -0.007668 0.0609 0.0741 -0.084
0.1604 -0.10486 0.0904 0.09393 -0.04672 -0.2141 -0.01098 -0.09515
-0.045 -0.02234 0.08795 0.00833 0.11523 -0.08765 0.12415 0.04523
-0.1439 -0.00656 -0.01046 -0.065 -0.109 -0.03705 0.1449 0.09204
0.000574 -0.04962 -0.02031 -0.0878 -0.03084 -0.02083 -0.1351 -0.07635
-0.066 -0.01448 -0.11163 0.0348 0.001703 0.03506 0.1572 -0.04507
0.0922 -8.68e-05 -0.1693 -0.04764 0.02322 0.05646 0.05096 -0.05432
-0.01974 0.05505 -0.01278 0.126 -0.03748 -0.0313 0.006435 -0.01823
0.133 0.02908 -0.0436 -0.2137 0.2255 0.1598 0.1951 -0.1923
0.1466 -0.0844 -0.04733 -0.0628 -0.0761 -0.0398 0.04156 -0.1
-0.05072 0.000502 0.0813 0.08044 -0.0526 -0.00834 0.03668 0.00154
0.103 -0.0807 0.02899 -0.027 0.0662 -0.0892 -0.09607 0.1456
-0.0643 0.03952 -0.03223 0.003862 -0.096 -0.1444 0.1688 0.0522
0.02916 -0.0896 -0.008224 -0.03778 0.12305 -0.0681 0.06793 0.01631
0.05878 -0.0893 -0.0911 -0.02747 0.0573 0.1392 -0.1613 -0.009895
00000000: d4af c62d 9927 c72b d8b0 3ead 3622 b924
00000010: d7a5 091e d62c b6a2 d3b0 02a8 3327 6a30
00000020: 6f09 701f 8c25 3b98 8321 9628 d52d d22d
00000030: 68a1 952d 4a25 40a8 51ad 18ac 66aa 5728
00000040: 4a9e 7e28 73b0 722c 5c2d 4422 212e 79a4
00000050: fe2d 7aaa eb2e 0c9d 5fa8 baac 5028 6929
00000060: 8c2f ac2d 9f2c d9ad 1ca4 db24 2f30 f297
00000070: 61a9 efa4 76ac 75ab 74a9 29ab 54a3 cc9f
00000080: 1030 48a5 5f29 f22c 18a6 9528 4eb1 73a8
00000090: 2f29 e9ad e2a7 140d 6f2c 9a2e 11a0 cdac
000000a0: 9ba9 fcaf 702e f4a9 8621 16a4 0aae 96a3
000000b0: 8ca3 a79c 4caf 172e 1a2e 4933 5cb4 8626
000000c0: eb2e e7ae 162a 4da5 dd1e a61e 761b bb25
000000d0: 162a e5a0 351e 0ca4 e6a4 a727 302a a4af
000000e0: 5790 49ab 7c30 c832 a92a 34a0 1da6 8ca2
000000f0: 8e2f 3c30 4f27 5433 862f 7930 ff27 a4ab
00000100: 798c f52c 2ea9 1aa5 9724 a81f d2ae e090
00000110: a1a6 80a7 0526 12b0 da9f cc2b be2c 60ad
00000120: 2231 b6ae c92d 032e fba9 dab2 9fa1 17ae
00000130: c3a9 b8a5 a12d 4420 602f 9cad f22f ca29
00000140: 9bb0 b89e 5ba1 29ac faae bea8 a330 e42d
00000150: b410 5aaa 33a5 9fad e5a7 55a5 53b0 e3ac
00000160: 39ac 6aa3 25af 7428 fa16 7d28 0831 c5a9
00000170: e72d b085 6bb1 19aa f225 3a2b 862a f4aa
00000180: 0ea5 0c2b 8ba2 0830 cca8 02a8 971e aba4
00000190: 4230 7227 95a9 d7b2 3733 1d31 3e32 27b2
000001a0: b130 67ad 0faa 05ac dfac 18a9 5229 66ae
000001b0: 7eaa 1d10 342d 262d bcaa 45a0 b228 4f16
000001c0: 982e 2aad 6c27 e9a6 3d2c b5ad 26ae a930
000001d0: 1dac 0f29 20a8 e91b 25ae 9fb0 6731 ae2a
000001e0: 7727 bcad 36a0 d6a8 e02f 5cac 592c 2d24
000001f0: 862b b7ad d5ad 08a7 562b 7430 29b1 11a1

import/Graph/MemNet/MemBlock_1/ResBlock_3/Conv1/bias:0 f2 [32]
0.001283 -0.006657 -0.002184 -0.005394 -0.002672 0.001261 -0.00291 0.01198
0.001098 -0.01439 -0.00972 -0.002815 -0.003626 -0.002972 -0.01212 0.002758
0.003918 0.001314 0.000528 -0.0093 -0.00771 -0.003807 -0.00266 -0.0008445
-0.00277 -0.006214 0.005165 -0.007126 0.00441 0.004974 -0.0009227 0.00268
00000000: 4115 d19e 7998 869d 7999 2a15 f699 2222
00000010: 7f14 5ea3 faa0 c499 6d9b 169a 35a2 a619
00000020: 031c 6215 5310 c3a0 e59f cc9b 7399 eb92
00000030: ac99 5d9e 4a1d 4c9f 841c 181d 8f93 7d19

import/Graph/MemNet/MemBlock_1/ResBlock_3/Conv2/kernel:0 f2 [32, 32, 3, 3]
-0.1061 -0.05215 -0.01393 -0.01042 0.02414 0.08453 -0.1011 0.001806
-0.04572 -0.04282 -0.11395 -0.1164 -0.02217 -0.00565 0.1111 0.02257
0.0852 -0.0606 0.1131 0.0179 0.05524 -0.00582 -0.1587 -0.0739
-0.02214 0.11523 0.01875 -0.00772 0.00826 -0.10815 -0.07733 0.015274
0.1428 0.08923 0.05933 0.007015 0.2085 -0.1478 -0.003792 -0.0811
0.0734 0.159 0.039 -0.04495 -0.03029 0.09344 0.07043 -0.01285
0.02522 0.04996 -0.0614 0.07935 -0.0316 -0.05023 -0.1609 -0.1525
-0.0894 -0.079 -0.02396 -0.0385 0.0445 -0.0936 0.1038 0.001871
0.001941 -0.008736 -0.11255 -0.04297 -0.05438 0.0002103 0.05643 0.02516
0.06088 0.01309 0.04684 -0.00499 0.04572 -0.05466 -0.03534 -0.11914
0.03616 2.36e-05 0.01536 0.025 0.00809 -0.0642 -0.0712 -0.0311
-0.128 0.07623 -0.01773 0.0755 0.09204 -0.02533 0.10046 0.01852
-0.031 0.1093 -0.0851 0.1372 0.1354 0.0809 -0.02396 0.07025
0.1045 0.011 -0.09204 0.03394 -0.0992 0.03177 0.0805 0.118
-0.06116 0.0528 -0.04456 0.08203 0.108 -0.0108 -0.0653 -0.007416
0.04642 -0.02148 0.09283 -0.01563 0.010506 -0.04202 0.005547 0.0812
0.05756 0.02202 -0.07465 0.01453 -0.03693 -0.0448 0.04803 -0.09186
-0.01826 -0.03915 0.005512 -0.04785 -0.00991 -0.01439 -0.01619 -0.1215
0.04105 -0.02324 0.01738 0.09924 -0.001709 -0.00696 0.04385 -0.1218
-0.0415 -0.08093 0.02475 -0.0628 -0.02055 -0.01837 0.1104 -0.06537
-0.008484 -0.0315 0.01445 -0.0627 -0.0396 -0.005547 0.10504 -0.12177
0.04465 0.05112 0.02061 -0.11194 0.025 -0.10254 -0.01534 -0.03885
0.01534 0.0746 0.01215 0.02087 0.0974 0.03354 0.03513 -0.11115
-0.02188 -0.0857 -0.076 -0.001375 0.0886 0.0469 -0.01599 -0.08997
0.0661 -0.0662 -0.01762 -0.05637 0.06586 -0.02618 0.0504 -0.06525
-0.0776 0.03748 -0.0824 0.02531 -0.05606 -0.03406 -0.03848 0.0774
0.01952 -0.01805 -0.1466 0.0166 -0.05267 0.01474 -0.09814 0.08203
-0.0544 -0.02625 -0.03064 -0.01144 -0.07086 -0.0571 0.0453 -0.1439
0.08234 0.07275 -0.0588 -0.00895 -0.08234 -0.00512 0.0506 -0.075
-0.1189 -0.002676 0.1239 -0.01727 0.00231 -0.02989 0.05298 0.035
0.0342 -0.02238 0.10254 -0.11334 0.02512 -0.0391 0.01176 0.10266
-0.04245 0.01003 0.01516 0.01223 -0.05127 -0.172 -0.03735 -0.04724
00000000: caae adaa 22a3 56a1 2e26 692d 78ae 6617
00000010: daa9 7ba9 4baf 73af ada5 c99d 1c2f c725
00000020: 742d c2ab 3d2f 9524 122b f69d 14b1 bbac
00000030: aba5 602f cd24 e89f 3b20 ecae f3ac d223
00000040: 9230 b62d 982b 2f1f ac32 bbb0 c49b 31ad
00000050: b32c 1731 fe28 c1a9 c1a7 fb2d 822c 94a2
00000060: 7526 652a dcab 142d 0ba8 6eaa 26b1 e1b0
00000070: b9ad 0ead 22a6 eea8 b229 fead a52e aa17
00000080: f317 79a0 34af 80a9 f6aa e40a 392b 7126
00000090: cb2b b422 ff29 1c9d da29 ffaa 86a8 a0af
000000a0: a128 8c01 dd23 6626 2420 1cac 8fac f6a7
000000b0: 19b0 e12c 8aa4 d52c e42d 7ca6 6e2e be24
000000c0: f0a7 ff2e 72ad 6430 5530 2d2d 22a6 7f2c
000000d0: b02e a221 e4ad 5828 59ae 1128 272d 8d2f
000000e0: d4ab c22a b4a9 402d e92e 88a1 2eac 989f
000000f0: f129 80a5 f12d 00a4 6121 61a9 ae1d 322d
00000100: 5e2b a325 c7ac 7023 baa8 bca9 262a e1ad
00000110: ada4 03a9 a51d 20aa 13a1 5ea3 25a4 c7af
00000120: 4129 f3a5 7324 5a2e 0097 219f 9d29 ccaf
00000130: 50a9 2ead 5626 05ac 43a5 b4a4 112f 2fac
00000140: 58a0 08a8 6623 03ac 12a9 ae9d b92e cbaf
00000150: b729 8b2a 4725 2aaf 6626 90ae dba3 f9a8
00000160: db23 c62c 3922 5825 3c2e 4b28 7f28 1daf
00000170: 9aa5 7cad ddac a295 ac2d 012a 18a4 c2ad
00000180: 3b2c 3dac 83a4 37ab 372c b4a6 742a 2dac
00000190: f7ac cc28 46ad 7b26 2dab 5ca8 eda8 f42c
000001a0: ff24 9fa4 b1b0 4024 beaa 8c23 48ae 402d
000001b0: f7aa b8a6 d8a7 dba1 89ac 4fab cc29 9bb0
000001c0: 452d a82c 87ab 95a0 45ad 3e9d 7a2a cdac
000001d0: 9caf 7b99 ee2f 6ca4 bb18 a7a7 c82a 7b28
000001e0: 6128 bba5 902e 41af 6e26 01a9 0522 922e
000001f0: 6fa9 2321 c323 4322 90aa 81b1 c8a8 0caa

import/Graph/MemNet/MemBlock_1/ResBlock_3/Conv2/bias:0 f2 [32]
0.0018015 0.00624 0.003136 0.00938 -0.005417 0.005905 0.0109 0.00622
0.000904 -0.00916 0.0033 0.001111 -0.000216 0.000303 -0.00221 -0.004784
-0.005928 -0.00479 0.00586 0.010574 -0.003994 0.0065 0.0003834 -0.00472
0.000765 -0.003683 -0.002785 -0.003038 -0.009445 0.004402 -0.0007486 -0.000904
00000000: 6117 641e 6c1a cd20 8c9d 0c1e 9521 5f1e
00000010: 6813 b1a0 c21a 8d14 148b f70c 8798 e69c
00000020: 129e e89c 001e 6a21 179c a81e 480e d59c
00000030: 4412 8b9b b499 399a d6a0 821c 2292 6893

import/Graph/MemNet/MemBlock_1/GateConv_1/kernel:0 f2 [32, 128, 1, 1]
-0.1559 -0.08154 0.2637 -0.0734 -0.2245 0.1959 0.1117 0.06506
0.1763 0.0664 -0.1787 -0.145 -0.0945 0.1946 0.02176 0.1572
0.10547 -0.04727 0.3674 0.01403 -0.3179 0.1131 -0.001867 0.3513
0.03897 -0.3574 -0.0982 0.06232 0.1646 -0.2517 0.1113 -0.02943
-0.2352 0.11096 0.413 -0.01423 -0.1621 -0.1069 -0.2996 0.04694
-0.1484 -0.1482 -0.2625 0.1533 -0.02502 -0.02477 -0.0501 -0.2198
-0.3352 0.0311 0.2866 -0.0432 0.203 -0.1868 -0.008545 -0.06854
-0.1533 0.357 0.259 0.02983 -0.1802 -0.189 0.2081 -0.11523
0.2654 0.2205 0.1494 -0.1808 0.0506 0.0834 0.02515 0.29
0.06042 -0.4575 0.4753 -0.07513 -0.1 0.0979 0.02669 0.002012
0.0394 -0.2029 0.007084 0.3555 -0.03029 0.0988 -0.008026 0.04187
0.02275 -0.1251 -0.11615 0.534 -0.2141 0.1686 -0.072 0.07806
0.000854 0.01575 0.1621 0.1096 0.388 0.04083 -0.00557 0.01158
-0.00196 -0.2869 -0.3572 -0.1667 0.406 0.08563 0.041 0.3953
0.2598 -0.1521 -0.05704 -0.3599 0.2764 0.0724 -0.1631 -0.1416
-0.0434 0.05795 0.272 0.04227 -0.2517 -0.1222 -0.2336 -0.04715
0.10706 -0.2177 0.03766 0.02747 -0.10034 0.2742 -0.4346 0.325
-0.1443 -0.2737 -0.1846 -0.09894 0.02475 0.234 -0.1087 -0.0681
0.1461 -0.2013 0.03238 -0.2725 -0.2262 0.1937 -0.003176 -0.4585
-0.3877 -0.2233 0.3518 -0.138 0.0967 0.2979 -0.1361 -0.0418
0.12036 -0.2183 0.1231 0.336 -0.3987 0.3337 -0.2532 -0.3972
0.2915 0.1575 -0.02881 -0.2876 0.1274 -0.02414 -0.1862 0.10754
0.4448 -0.04495 0.0688 -0.1122 -0.2795 -0.0955 0.1788 0.03775
-0.264 -0.4001 -0.3882 -0.1759 -0.1516 0.4524 0.1844 0.1387
0.2769 -0.1262 -0.04977 0.063 0.12 0.436 -0.1698 0.425
0.1528 -0.0006547 -0.2032 0.04953 -0.4192 -0.06073 -0.2362 -0.1045
0.2009 0.2323 0.5205 -0.1279 0.1853 0.2108 0.1353 0.2322
-0.0214 -0.10156 -0.02496 0.2979 0.00878 0.268 0.10474 -0.03897
0.3235 -0.1126 0.11487 -0.3523 0.0714 -0.01714 -0.02237 0.4036
0.4072 -0.005962 -0.12494 -0.2744 -0.403 -0.3079 -0.2001 0.157
0.3872 0.2715 0.1616 -0.1327 0.1536 0.4932 0.04147 0.06824
-0.008545 0.1355 0.086 0.03342 0.01278 0.1154 -0.2306 0.1647
00000000: fdb0 38ad 3834 b3ac 2fb3 4532 262f 2a2c
00000010: a431 402c b8b1 a4b0 0cae 3a32 9225 0831
00000020: c02e 0daa e135 2f23 16b5 3d2f a697 9f35
00000030: fd28 b8b5 49ae fa2b 4431 07b4 202f 89a7
00000040: 87b3 1a2f 9c36 49a3 30b1 d7ae cbb4 022a
00000050: c0b0 beb0 33b4 e830 68a6 57a6 6aaa 09b3
00000060: 5db5 f627 9634 88a9 7f32 fab1 60a0 63ac
00000070: e8b0 b635 2534 a327 c4b1 0cb2 a932 60af
00000080: 3f34 0e33 c830 c9b1 7a2a 562d 7026 a434
00000090: bc2b 52b7 9b37 cfac 66ae 442e d526 1f18
000000a0: 0b29 7eb2 411f b035 c1a7 532e 1ca0 5c29
000000b0: d325 01b0 6faf 4638 dab2 6531 9cac ff2c
000000c0: ff12 0824 3031 042f 3536 3a29 b49d ee21
000000d0: 0498 97b4 b7b5 56b1 7f36 7b2d 3f29 5336
000000e0: 2834 deb0 4dab c2b5 6c34 a22c 38b1 88b0
000000f0: 8ea9 6b2b 5a34 6929 07b4 d2af 7ab3 09aa
00000100: da2e f7b2 d228 0827 6cae 6334 f4b6 3335
00000110: 9eb0 61b4 e8b1 55ae 5626 7d33 f5ae 5cac
00000120: ad30 71b2 2528 5cb4 3db3 3332 819a 56b7
00000130: 34b6 25b3 a135 6ab0 302e c434 5bb0 5aa9
00000140: b42f fcb2 e12f 6035 61b6 5735 0db4 5bb6
00000150: aa34 0a31 60a7 9ab4 1430 2ea6 f5b1 e22e
00000160: 1e37 c1a9 672c 2eaf 79b4 1dae b931 d528
00000170: 39b4 67b6 36b6 a1b1 dab0 3d37 e731 7030
00000180: 6e34 0ab0 5faa 082c ae2f fa36 6fb1 cd36
00000190: e430 5d91 81b2 572a b5b6 c6ab 8fb3 b0ae
000001a0: 6e32 6f33 2a38 18b0 ee31 bf32 5430 6e33
000001b0: 7aa5 80ae 64a6 c434 7f20 4a34 b42e fda8
000001c0: 2d35 35af 5a2f a3b5 922c 63a4 baa5 7536
000001d0: 8436 1b9e ffaf 64b4 73b6 edb4 67b2 0631
000001e0: 3236 5834 2c31 3fb0 ea30 e437 4f29 5e2c
000001f0: 60a0 5630 812d 4728 8b22 632f 61b3 4531

import/Graph/MemNet/MemBlock_1/GateConv_1/bias:0 f2 [32]
0.00602 -0.006092 0.0154 0.002932 -0.00926 0.01243 0.0051 0.003016
0.011986 0.01151 0.006256 -0.001898 0.0081 0.0165 -0.0003698 -0.001617
0.008125 0.01412 -0.0135 0.002983 0.01225 0.01098 0.00912 0.01169
-0.002281 0.01227 0.01082 0.0009446 0.01706 0.003788 -0.004684 0.01097
00000000: 2a1e 3d9e e323 011a bea0 5d22 391d 2d1a
00000010: 2322 e521 681e c697 2620 3924 0f8e a096
00000020: 2920 3b23 e9a2 1c1a 4622 9f21 ab20 fc21
00000030: ac98 4822 8a21 bd13 5e24 c21b cc9c 9e21

import/Graph/MemNet/HRConv2d/kernel:0 f2 [32, 32, 3, 3]
0.036 -0.009514 -0.0006566 -0.07196 -0.07336 -0.03546 -0.0472 -0.067
0.1437 0.0406 -0.0599 -0.0217 0.0319 0.1075 -0.00931 0.0941
-0.1481 -0.02327 0.01454 0.06714 0.0786 -0.04028 0.07196 -0.00716
0.1063 0.0856 -0.10034 -0.0745 0.071 0.003998 -0.0591 -0.0697
-0.1306 -0.02667 0.03738 -0.2042 -0.01151 -0.11066 -0.08606 -0.04776
0.01604 -0.09015 -0.02963 -0.0336 0.1586 -0.02548 0.07294 0.02112
-0.0852 0.03326 0.104 0.03983 -0.0541 0.0822 0.0663 0.02896
0.02487 -0.02003 0.0379 -0.03943 -0.04837 -0.03032 -0.013954 0.0278
0.0332 0.1405 0.00984 -0.06192 -0.03363 -0.0742 0.02773 0.0141
0.1428 0.02628 -0.10333 -0.04962 -0.0504 0.03482 0.003407 -0.01587
-0.05542 0.12006 -0.0692 -0.04004 -0.1458 -0.02043 0.003485 0.0184
0.06805 0.008354 -0.171 0.1207 0.05484 0.08203 -0.02704 0.006905
0.055 0.1809 -0.01837 0.0881 0.0829 -0.02072 -0.01614 -0.15
0.06046 -0.0001522 -0.1323 -0.014465 0.0518 -0.00349 -0.02235 -0.11884
0.0998 0.05386 -0.03992 -0.010086 0.01721 0.04602 0.05847 -0.1726
0.005535 -0.1437 0.02235 0.1019 0.04092 -0.0808 -0.01718 -0.02464
0.115 -0.05252 0.01662 0.02292 0.06226 0.08276 0.0706 -0.003344
0.0718 -0.08356 0.05933 -0.0002433 0.0007477 0.1276 -0.06586 -0.0297
-0.095 0.03372 0.0731 -0.01811 -0.001884 -0.1565 0.01092 0.0343
-0.034 0.003468 0.005486 0.01023 -0.0712 0.2152 -0.154 0.1927
-0.0592 -0.06775 0.01575 -0.1403 -0.05145 0.06793 -0.01314 -0.0351
0.05658 -0.0896 -0.0902 0.0259 0.08167 -0.001831 -0.0057 0.0287
0.0601 0.012764 -0.1627 0.0598 0.039 -0.01808 -0.03006 0.03265
0.07056 -0.169 0.1575 0.0539 0.1268 0.0817 -0.001924 -0.1143
-0.04306 -0.09753 0.10364 0.03372 0.0007567 0.05496 -0.01212 -0.003313
0.04535 -0.10223 -0.0361 0.02524 -0.06934 0.01362 -0.0947 0.10236
-0.0665 -0.11 0.05588 -0.004475 0.02936 0.04214 0.08167 -0.06354
0.00139 -0.03983 0.05078 -0.12225 0.1832 0.06335 -0.07263 0.01249
0.0446 -0.01492 -0.0546 0.02129 0.0864 0.08295 0.0185 -0.0765
-0.00524 0.03516 0.04175 0.1305 0.2064 0.03952 0.00755 0.09515
-0.1333 0.109 -0.03308 -0.0601 -0.05212 -0.004772 0.1442 -0.006226
0.01386 -0.1368 0.157 0.0003617 -0.06683 0.1439 0.1132 -0.10034
00000000: 9c28 dfa0 6191 9bac b2ac 8aa8 0baa 4aac
00000010: 9930 3229 abab 8ea5 1528 e12e c4a0 062e
00000020: bdb0 f5a5 7223 4c2c 082d 28a9 9b2c 559f
00000030: ce2e 7a2d 6cae c5ac 8b2c 181c 91ab 76ac
00000040: 2eb0 d4a6 c928 89b2 e5a1 15af 82ad 1daa
00000050: 1b24 c5ad 96a7 4da8 1331 86a6 ab2c 6825
00000060: 74ad 4228 a82e 1929 edaa 432d 3e2c 6a27
00000070: 5e26 21a5 da28 0ca9 31aa c3a7 25a3 1e27
00000080: 4028 7f30 0a21 edab 4ea8 c0ac 1927 3823
00000090: 9230 ba26 9dae 5aaa 74aa 7528 fa1a 10a4
000000a0: 18ab af2f 6eac 20a9 aab0 3ba5 231b b624
000000b0: 5b2c 4720 79b1 ba2f 052b 402d eca6 121f
000000c0: 0a2b ca31 b4a4 a32d 4e2d 4ea5 22a4 cdb0
000000d0: bd2b fd88 3cb0 68a3 a12a 269b b9a5 9baf
000000e0: 632e e52a 1ca9 2aa1 6824 e429 7c2b 86b1
000000f0: ab1d 99b0 b925 862e 3d29 2cad 66a4 4fa6
00000100: 5c2f b9aa 4124 de25 f82b 4c2d 852c d99a
00000110: 982c 59ad 982b f98b 2012 1530 37ac 9aa7
00000120: 14ae 5128 ae2c a3a4 b897 02b1 9721 6428
00000130: 5aa8 1a1b 9e1d 3d21 8fac e332 eeb0 2b32
00000140: 94ab 56ac 0824 7db0 96aa 592c baa2 7ea8
00000150: 3e2b bcad c6ad a126 3a2d 8097 d69d 5927
00000160: b12b 8922 35b1 a82b fe28 a1a4 b2a7 2e28
00000170: 842c 68b1 0a31 e62a 0f30 3b2d e197 51af
00000180: 83a9 3eae a22e 5128 3312 092b 35a2 c99a
00000190: ce29 8bae 9fa8 7626 70ac f922 10ae 8d2e
000001a0: 42ac 0aaf 272b 959c 8427 6529 3a2d 11ac
000001b0: b215 19a9 802a d3af dd31 0e2c a6ac 6522
000001c0: b529 a4a3 fdaa 7325 882d 4f2d bc24 e5ac
000001d0: 5e9d 8028 5829 2d30 9b32 0f29 bb1f 172e
000001e0: 44b0 fa2e 3ca8 b1ab acaa e39c 9d30 609e
000001f0: 1923 61b0 0631 ed0d 47ac 9b30 3f2f 6cae

import/Graph/MemNet/HRConv2d/bias:0 f2 [32]
-0.002928 0.003832 0.00798 -0.00748 0.00882 0.00068 -0.01356 0.01575
-0.000403 -0.01518 0.002337 -0.000594 -0.0125 -0.002481 -0.003002 0.0005574
-0.002867 -0.005615 -0.01414 0.002987 -0.001885 -0.002289 0.02406 0.00561
0.000172 0.00287 0.00565 0.001527 -0.00919 -0.003368 0.0094 -0.01872
00000000: ff99 d91b 1620 a99f 8420 9211 f1a2 0824
00000010: 9a8e c6a3 c918 de90 66a2 1599 269a 9110
00000020: df99 c09d 3da3 1e1a b997 b098 2926 bf1d
00000030: a309 e119 c91d 4116 b5a0 e69a d020 cba4

import/Graph/MemNet/conv2d/kernel:0 f2 [12, 32, 3, 3]
-0.0267 -0.0009136 -0.0455 -0.0432 -0.0096 -0.1334 0.03723 0.2279
0.193 -0.01654 -0.08075 0.05865 0.05136 0.02249 0.2216 -0.052
0.05637 -0.06274 0.2551 -0.02187 0.1516 0.04535 -0.2062 -0.001585
-0.00738 -0.08856 -0.027 0.0896 -0.0792 0.1896 -0.1774 0.06085
0.04095 0.0367 -0.085 0.2085 0.0381 0.1111 -0.05786 0.2986
0.09875 0.06036 -0.3025 0.05627 0.0665 -0.02898 0.2786 -0.0679
-0.117 -0.1378 -0.04523 -0.03912 -0.2188 0.0503 0.06183 0.001003
0.04156 0.02892 0.0725 -0.141 0.2429 0.04794 0.08124 -0.1365
-0.1069 -0.2454 -0.05243 -0.0712 -0.0868 -0.0571 -0.003883 0.1562
0.007183 -0.0623 -0.05435 -0.2092 -0.1096 -0.071 0.2327 -0.1216
-0.06415 -0.2341 0.157 -0.1368 -0.0508 0.1699 0.00387 0.215
0.1381 -0.0834 -0.178 0.015045 -0.03897 -0.132 0.1154 -0.03516
-0.1702 -0.06216 0.009384 -0.07056 -0.0489 -0.1261 -0.0443 -0.004158
-0.01092 -0.1875 0.08374 0.08044 0.11084 -0.0672 0.09534 -0.1295
-0.131 -0.104 0.2484 -0.2148 0.04965 0.09735 -0.0554 0.07776
-0.003757 -0.1255 -0.10956 0.0689 0.1584 0.00864 -0.0848 -0.02344
0.0504 -0.00718 0.479 0.1797 0.1209 0.05487 -0.10175 0.1371
-0.2059 0.0956 -0.10846 -0.1149 -0.0503 0.2302 0.06354 0.02136
-0.0948 0.2081 -0.1343 0.1931 0.3477 -0.03165 -0.1815 0.2544
0.094 -0.1344 0.2118 0.07306 -0.1761 0.1633 0.05322 -0.1321
-0.1361 0.10016 0.07947 -0.1493 0.10645 0.2522 -0.03268 -0.1162
0.0551 0.11426 -0.1349 -0.1876 -0.1797 0.1625 -0.091 -0.011314
-0.1494 -0.1567 -0.02138 -0.00392 0.0328 0.2288 -0.0472 -0.01617
0.1497 0.1453 0.0764 0.254 0.1207 -0.0977 0.1301 -0.09094
-0.00824 -0.04126 0.1139 0.2202 -0.0005665 0.2437 -0.0688 0.1338
-0.2634 0.1176 0.014854 -0.10315 -0.2224 -0.2583 0.0788 0.04517
0.07324 -0.08264 -0.0701 0.10645 0.03818 0.1757 0.06915 0.04825
0.1366 0.1744 0.0962 -0.0097 -0.002924 -0.197 0.10364 0.08234
0.0648 -0.0643 0.2678 0.08185 0.05954 -0.00665 0.00978 -0.01497
-0.04538 0.1483 0.1736 0.0281 -0.03345 0.0479 -0.2761 0.000143
-0.01307 0.1199 0.09174 -0.07965 0.2234 -0.10846 -0.0465 -0.05746
0.0514 -0.06396 -0.072 -0.1542 0.0405 -0.1289 0.2688 0.04913
00000000: d6a6 7c93 d3a9 88a9 eaa0 45b0 c428 4b33
00000010: 2d32 3ca4 2bad 822b 932a c225 1733 a8aa
00000020: 372b 04ac 1534 99a5 da30 ce29 99b2 7e96
00000030: 8f9f abad e9a6 bc2d 12ad 1132 adb1 ca2b
00000040: 3e29 b328 71ad ac32 e028 1c2f 68ab c734
00000050: 522e ba2b d7b4 342b 422c 6ba7 7534 58ac
00000060: 7daf 69b0 caa9 02a9 00b3 702a ea2b 1c14
00000070: 5229 6727 a42c 83b0 c633 232a 332d 5eb0
00000080: d7ae dab3 b6aa 8fac 8ead 4fab f49b 0031
00000090: 5b1f f9ab f5aa b2b2 04af 8bac 7233 c8af
000000a0: 1bac 7eb3 0631 61b0 81aa 7031 ed1b e132
000000b0: 6b30 56ad b2b1 b423 fda8 39b0 632f 80a8
000000c0: 72b1 f5ab ce20 84ac 42aa 09b0 aca9 429c
000000d0: 97a1 00b2 5c2d 262d 182f 4dac 1a2e 25b0
000000e0: 31b0 a8ae f333 e0b2 5b2a 3b2e 17ab fa2c
000000f0: b29b 04b0 03af 692c 1231 6c20 6dad 00a6
00000100: 742a 5a9f aa37 c031 bd2f 062b 83ae 6330
00000110: 97b2 1e2e f1ae 5baf 70aa 5e33 112c 7825
00000120: 11ae a932 4cb0 2e32 9035 0da8 cfb1 1234
00000130: 042e 4db0 c732 ad2c a3b1 3a31 d02a 3ab0
00000140: 5bb0 692e 162d c7b0 d02e 0934 2fa8 70af
00000150: 0e2b 502f 51b0 01b2 c0b1 3331 d3ad cba1
00000160: c8b0 04b1 79a5 049c 3328 5233 0baa 24a4
00000170: ca30 a630 e42c 1034 ba2f 41ae 2a30 d2ad
00000180: 38a0 48a9 4a2f 0c33 a490 cc33 67ac 4830
00000190: 37b4 872f 9b23 9aae 1eb3 22b4 0b2d c829
000001a0: b02c 4aad 7dac d02e e328 9f31 6d2c 2d2a
000001b0: 5f30 9531 282e f7a0 fd99 4eb2 a22e 452d
000001c0: 262c 1dac 4934 3d2d 9f2b cf9e 0221 aaa3
000001d0: cfa9 bf30 8e31 3227 48a8 222a 6bb4 b008
000001e0: b1a2 ac2f df2d 19ad 2633 f1ae f4a9 5bab
000001f0: 942a 18ac 9cac efb0 2f29 20b0 4d34 4a2a

import/Graph/MemNet/conv2d/bias:0 f2 [12]
-0.01122 -0.01347 -0.01354 -0.0193 -0.0093 -0.01011 -0.02061 -0.01846
-0.02232 -0.01749 -0.012985 -0.02748
00000000: bfa1 e6a2 efa2 f1a4 c3a0 2da1 47a5 baa4
00000010: b7a5 7aa4 a6a2 09a7
